…
train: 100%|██████████| 540/540 [00:12<00:00, 42.13it/s]

validation:  75%|███████▌  | 452/600 [00:02<00:00, 192.37it/s]
10 epoch, 4860 step: val_loss: 0.02706300839781761, val_acc: 0.9099984169006348
validation: 100%|██████████| 600/600 [00:03<00:00, 165.62it/s]
train:   7%|▋         | 37/540 [00:00<00:10, 47.96it/s]

train:  21%|██▏       | 116/540 [00:02<00:11, 37.04it/s]

train:  38%|███▊      | 205/540 [00:05<00:06, 52.26it/s]

train:  54%|█████▍    | 293/540 [00:07<00:04, 51.28it/s]

train:  70%|██████▉   | 377/540 [00:09<00:05, 31.58it/s]


train: 100%|██████████| 540/540 [00:12<00:00, 43.03it/s]
CNN(
  (layer1): Sequential(
    (0): Conv2d(1, 32, kernel_size=(3, 3), stride=(1, 1), padding=(1, 1))
    (1): BatchNorm2d(32, eps=1e-05, momentum=0.1, affine=True, track_running_stats=True)
    (2): ReLU()
    (3): MaxPool2d(kernel_size=2, stride=2, padding=0, dilation=1, ceil_mode=False)
  )
  (layer2): Sequential(
    (0): Conv2d(32, 64, kernel_size=(3, 3), stride=(1, 1))
    (1): BatchNorm2d(64, eps=1e-05, momentum=0.1, affine=True, track_running_stats=True)
    (2): ReLU()
    (3): MaxPool2d(kernel_size=2, stride=1, padding=0, dilation=1, ceil_mode=False)
  )
  (fc1): Linear(in_features=7744, out_features=512, bias=True)
  (fc2): Linear(in_features=512, out_features=128, bias=True)
  (fc3): Linear(in_features=128, out_features=10, bias=True)
  (dropout): Dropout2d(p=0.25, inplace=False)
)
testing:   0%|          | 0/100 [00:00<?, ?it/s]
CNN(
  (layer1): Sequential(
    (0): Conv2d(1, 32, kernel_size=(3, 3), stride=(1, 1), padding=(1, 1))
    (1): BatchNorm2d(32, eps=1e-05, momentum=0.1, affine=True, track_running_stats=True)
    (2): ReLU()
    (3): MaxPool2d(kernel_size=2, stride=2, padding=0, dilation=1, ceil_mode=False)
  )
  (layer2): Sequential(
    (0): Conv2d(32, 64, kernel_size=(3, 3), stride=(1, 1))
    (1): BatchNorm2d(64, eps=1e-05, momentum=0.1, affine=True, track_running_stats=True)
    (2): ReLU()
    (3): MaxPool2d(kernel_size=2, stride=1, padding=0, dilation=1, ceil_mode=False)
  )
  (fc1): Linear(in_features=7744, out_features=512, bias=True)
  (fc2): Linear(in_features=512, out_features=128, bias=True)
  (fc3): Linear(in_features=128, out_features=10, bias=True)
  (dropout): Dropout2d(p=0.25, inplace=False)
)
testing:   0%|          | 0/100 [00:00<?, ?it/s]
testing:   0%|          | 0/100 [00:00<?, ?it/s]/home/jmj3047/anaconda3/lib/python3.8/site-packages/torch/nn/functional.py:1320: UserWarning: dropout2d: Received a 2-D input to dropout2d, which is deprecated and will result in an error in a future release. To retain the behavior and silence this warning, please use dropout instead. Note that dropout2d exists to provide channel-wise dropout on inputs with 2 spatial dimensions, a channel dimension, and an optional batch dimension (i.e. 3D or 4D inputs).
…
